models/cagcrn.onnx (onnx, 529995 bytes, 286 tensors)

erb.analysis.weight f4 [64, 192]
000000 00 00 80 3f 00 00 00 00 00 00 00 00 00 00 00 00
       1.0 0.0 0.0 0.0
000010 00 00 00 00 00 00 00 00 00 00 00 00 00 00 00 00
       0.0 0.0 0.0 0.0
000020 00 00 00 00 00 00 00 00 00 00 00 00 00 00 00 00
       0.0 0.0 0.0 0.0
000030 00 00 00 00 00 00 00 00 00 00 00 00 00 00 00 00
       0.0 0.0 0.0 0.0
000040 00 00 00 00 00 00 00 00 00 00 00 00 00 00 00 00
       0.0 0.0 0.0 0.0
000050 00 00 00 00 00 00 00 00 00 00 00 00 00 00 00 00
       0.0 0.0 0.0 0.0
000060 00 00 00 00 00 00 00 00 00 00 00 00 00 00 00 00
       0.0 0.0 0.0 0.0
000070 00 00 00 00 00 00 00 00 00 00 00 00 00 00 00 00
       0.0 0.0 0.0 0.0
000080 00 00 00 00 00 00 00 00 00 00 00 00 00 00 00 00
       0.0 0.0 0.0 0.0
000090 00 00 00 00 00 00 00 00 00 00 00 00 00 00 00 00
       0.0 0.0 0.0 0.0
0000a0 00 00 00 00 00 00 00 00 00 00 00 00 00 00 00 00
       0.0 0.0 0.0 0.0
0000b0 00 00 00 00 00 00 00 00 00 00 00 00 00 00 00 00
       0.0 0.0 0.0 0.0
0000c0 00 00 00 00 00 00 00 00 00 00 00 00 00 00 00 00
       0.0 0.0 0.0 0.0
0000d0 00 00 00 00 00 00 00 00 00 00 00 00 00 00 00 00
       0.0 0.0 0.0 0.0
0000e0 00 00 00 00 00 00 00 00 00 00 00 00 00 00 00 00
       0.0 0.0 0.0 0.0
0000f0 00 00 00 00 00 00 00 00 00 00 00 00 00 00 00 00
       0.0 0.0 0.0 0.0
000100 00 00 00 00 00 00 00 00 00 00 00 00 00 00 00 00
       0.0 0.0 0.0 0.0
000110 00 00 00 00 00 00 00 00 00 00 00 00 00 00 00 00
       0.0 0.0 0.0 0.0
000120 00 00 00 00 00 00 00 00 00 00 00 00 00 00 00 00
       0.0 0.0 0.0 0.0
000130 00 00 00 00 00 00 00 00 00 00 00 00 00 00 00 00
       0.0 0.0 0.0 0.0
000140 00 00 00 00 00 00 00 00 00 00 00 00 00 00 00 00
       0.0 0.0 0.0 0.0
000150 00 00 00 00 00 00 00 00 00 00 00 00 00 00 00 00
       0.0 0.0 0.0 0.0
000160 00 00 00 00 00 00 00 00 00 00 00 00 00 00 00 00
       0.0 0.0 0.0 0.0
000170 00 00 00 00 00 00 00 00 00 00 00 00 00 00 00 00
       0.0 0.0 0.0 0.0
000180 00 00 00 00 00 00 00 00 00 00 00 00 00 00 00 00
       0.0 0.0 0.0 0.0
000190 00 00 00 00 00 00 00 00 00 00 00 00 00 00 00 00
       0.0 0.0 0.0 0.0
0001a0 00 00 00 00 00 00 00 00 00 00 00 00 00 00 00 00
       0.0 0.0 0.0 0.0
0001b0 00 00 00 00 00 00 00 00 00 00 00 00 00 00 00 00
       0.0 0.0 0.0 0.0
0001c0 00 00 00 00 00 00 00 00 00 00 00 00 00 00 00 00
       0.0 0.0 0.0 0.0
0001d0 00 00 00 00 00 00 00 00 00 00 00 00 00 00 00 00
       0.0 0.0 0.0 0.0
0001e0 00 00 00 00 00 00 00 00 00 00 00 00 00 00 00 00
       0.0 0.0 0.0 0.0
0001f0 00 00 00 00 00 00 00 00 00 00 00 00 00 00 00 00
       0.0 0.0 0.0 0.0
000200 00 00 00 00 00 00 00 00 00 00 00 00 00 00 00 00
       0.0 0.0 0.0 0.0
000210 00 00 00 00 00 00 00 00 00 00 00 00 00 00 00 00
       0.0 0.0 0.0 0.0
000220 00 00 00 00 00 00 00 00 00 00 00 00 00 00 00 00
       0.0 0.0 0.0 0.0
000230 00 00 00 00 00 00 00 00 00 00 00 00 00 00 00 00
       0.0 0.0 0.0 0.0
000240 00 00 00 00 00 00 00 00 00 00 00 00 00 00 00 00
       0.0 0.0 0.0 0.0
000250 00 00 00 00 00 00 00 00 00 00 00 00 00 00 00 00
       0.0 0.0 0.0 0.0
000260 00 00 00 00 00 00 00 00 00 00 00 00 00 00 00 00
       0.0 0.0 0.0 0.0
000270 00 00 00 00 00 00 00 00 00 00 00 00 00 00 00 00
       0.0 0.0 0.0 0.0
000280 00 00 00 00 00 00 00 00 00 00 00 00 00 00 00 00
       0.0 0.0 0.0 0.0
000290 00 00 00 00 00 00 00 00 00 00 00 00 00 00 00 00
       0.0 0.0 0.0 0.0
0002a0 00 00 00 00 00 00 00 00 00 00 00 00 00 00 00 00
       0.0 0.0 0.0 0.0
0002b0 00 00 00 00 00 00 00 00 00 00 00 00 00 00 00 00
       0.0 0.0 0.0 0.0
0002c0 00 00 00 00 00 00 00 00 00 00 00 00 00 00 00 00
       0.0 0.0 0.0 0.0
0002d0 00 00 00 00 00 00 00 00 00 00 00 00 00 00 00 00
       0.0 0.0 0.0 0.0
0002e0 00 00 00 00 00 00 00 00 00 00 00 00 00 00 00 00
       0.0 0.0 0.0 0.0
0002f0 00 00 00 00 00 00 00 00 00 00 00 00 00 00 00 00
       0.0 0.0 0.0 0.0
000300 00 00 00 00 00 00 80 3f 00 00 00 3f 00 00 00 00
       0.0 1.0 0.5 0.0
000310 00 00 00 00 00 00 00 00 00 00 00 00 00 00 00 00
       0.0 0.0 0.0 0.0
000320 00 00 00 00 00 00 00 00 00 00 00 00 00 00 00 00
       0.0 0.0 0.0 0.0
000330 00 00 00 00 00 00 00 00 00 00 00 00 00 00 00 00
       0.0 0.0 0.0 0.0
000340 00 00 00 00 00 00 00 00 00 00 00 00 00 00 00 00
       0.0 0.0 0.0 0.0
000350 00 00 00 00 00 00 00 00 00 00 00 00 00 00 00 00
       0.0 0.0 0.0 0.0
000360 00 00 00 00 00 00 00 00 00 00 00 00 00 00 00 00
       0.0 0.0 0.0 0.0
000370 00 00 00 00 00 00 00 00 00 00 00 00 00 00 00 00
       0.0 0.0 0.0 0.0
000380 00 00 00 00 00 00 00 00 00 00 00 00 00 00 00 00
       0.0 0.0 0.0 0.0
000390 00 00 00 00 00 00 00 00 00 00 00 00 00 00 00 00
       0.0 0.0 0.0 0.0
0003a0 00 00 00 00 00 00 00 00 00 00 00 00 00 00 00 00
       0.0 0.0 0.0 0.0
0003b0 00 00 00 00 00 00 00 00 00 00 00 00 00 00 00 00
       0.0 0.0 0.0 0.0
0003c0 00 00 00 00 00 00 00 00 00 00 00 00 00 00 00 00
       0.0 0.0 0.0 0.0
0003d0 00 00 00 00 00 00 00 00 00 00 00 00 00 00 00 00
       0.0 0.0 0.0 0.0
0003e0 00 00 00 00 00 00 00 00 00 00 00 00 00 00 00 00
       0.0 0.0 0.0 0.0
0003f0 00 00 00 00 00 00 00 00 00 00 00 00 00 00 00 00
       0.0 0.0 0.0 0.0

erb.synthesis.weight f4 [192, 64]
000000 00 00 80 3f 00 00 00 00 00 00 00 00 00 00 00 00
       1.0 0.0 0.0 0.0
000010 00 00 00 00 00 00 00 00 00 00 00 00 00 00 00 00
       0.0 0.0 0.0 0.0
000020 00 00 00 00 00 00 00 00 00 00 00 00 00 00 00 00
       0.0 0.0 0.0 0.0
000030 00 00 00 00 00 00 00 00 00 00 00 00 00 00 00 00
       0.0 0.0 0.0 0.0
000040 00 00 00 00 00 00 00 00 00 00 00 00 00 00 00 00
       0.0 0.0 0.0 0.0
000050 00 00 00 00 00 00 00 00 00 00 00 00 00 00 00 00
       0.0 0.0 0.0 0.0
000060 00 00 00 00 00 00 00 00 00 00 00 00 00 00 00 00
       0.0 0.0 0.0 0.0
000070 00 00 00 00 00 00 00 00 00 00 00 00 00 00 00 00
       0.0 0.0 0.0 0.0
000080 00 00 00 00 00 00 00 00 00 00 00 00 00 00 00 00
       0.0 0.0 0.0 0.0
000090 00 00 00 00 00 00 00 00 00 00 00 00 00 00 00 00
       0.0 0.0 0.0 0.0
0000a0 00 00 00 00 00 00 00 00 00 00 00 00 00 00 00 00
       0.0 0.0 0.0 0.0
0000b0 00 00 00 00 00 00 00 00 00 00 00 00 00 00 00 00
       0.0 0.0 0.0 0.0
0000c0 00 00 00 00 00 00 00 00 00 00 00 00 00 00 00 00
       0.0 0.0 0.0 0.0
0000d0 00 00 00 00 00 00 00 00 00 00 00 00 00 00 00 00
       0.0 0.0 0.0 0.0
0000e0 00 00 00 00 00 00 00 00 00 00 00 00 00 00 00 00
       0.0 0.0 0.0 0.0
0000f0 00 00 00 00 00 00 00 00 00 00 00 00 00 00 00 00
       0.0 0.0 0.0 0.0
000100 00 00 00 00 00 00 80 3f 00 00 00 00 00 00 00 00
       0.0 1.0 0.0 0.0
000110 00 00 00 00 00 00 00 00 00 00 00 00 00 00 00 00
       0.0 0.0 0.0 0.0
000120 00 00 00 00 00 00 00 00 00 00 00 00 00 00 00 00
       0.0 0.0 0.0 0.0
000130 00 00 00 00 00 00 00 00 00 00 00 00 00 00 00 00
       0.0 0.0 0.0 0.0
000140 00 00 00 00 00 00 00 00 00 00 00 00 00 00 00 00
       0.0 0.0 0.0 0.0
000150 00 00 00 00 00 00 00 00 00 00 00 00 00 00 00 00
       0.0 0.0 0.0 0.0
000160 00 00 00 00 00 00 00 00 00 00 00 00 00 00 00 00
       0.0 0.0 0.0 0.0
000170 00 00 00 00 00 00 00 00 00 00 00 00 00 00 00 00
       0.0 0.0 0.0 0.0
000180 00 00 00 00 00 00 00 00 00 00 00 00 00 00 00 00
       0.0 0.0 0.0 0.0
000190 00 00 00 00 00 00 00 00 00 00 00 00 00 00 00 00
       0.0 0.0 0.0 0.0
0001a0 00 00 00 00 00 00 00 00 00 00 00 00 00 00 00 00
       0.0 0.0 0.0 0.0
0001b0 00 00 00 00 00 00 00 00 00 00 00 00 00 00 00 00
       0.0 0.0 0.0 0.0
0001c0 00 00 00 00 00 00 00 00 00 00 00 00 00 00 00 00
       0.0 0.0 0.0 0.0
0001d0 00 00 00 00 00 00 00 00 00 00 00 00 00 00 00 00
       0.0 0.0 0.0 0.0
0001e0 00 00 00 00 00 00 00 00 00 00 00 00 00 00 00 00
       0.0 0.0 0.0 0.0
0001f0 00 00 00 00 00 00 00 00 00 00 00 00 00 00 00 00
       0.0 0.0 0.0 0.0
000200 00 00 00 00 00 00 00 3f 00 00 00 3f 00 00 00 00
       0.0 0.5 0.5 0.0
000210 00 00 00 00 00 00 00 00 00 00 00 00 00 00 00 00
       0.0 0.0 0.0 0.0
000220 00 00 00 00 00 00 00 00 00 00 00 00 00 00 00 00
       0.0 0.0 0.0 0.0
000230 00 00 00 00 00 00 00 00 00 00 00 00 00 00 00 00
       0.0 0.0 0.0 0.0
000240 00 00 00 00 00 00 00 00 00 00 00 00 00 00 00 00
       0.0 0.0 0.0 0.0
000250 00 00 00 00 00 00 00 00 00 00 00 00 00 00 00 00
       0.0 0.0 0.0 0.0
000260 00 00 00 00 00 00 00 00 00 00 00 00 00 00 00 00
       0.0 0.0 0.0 0.0
000270 00 00 00 00 00 00 00 00 00 00 00 00 00 00 00 00
       0.0 0.0 0.0 0.0
000280 00 00 00 00 00 00 00 00 00 00 00 00 00 00 00 00
       0.0 0.0 0.0 0.0
000290 00 00 00 00 00 00 00 00 00 00 00 00 00 00 00 00
       0.0 0.0 0.0 0.0
0002a0 00 00 00 00 00 00 00 00 00 00 00 00 00 00 00 00
       0.0 0.0 0.0 0.0
0002b0 00 00 00 00 00 00 00 00 00 00 00 00 00 00 00 00
       0.0 0.0 0.0 0.0
0002c0 00 00 00 00 00 00 00 00 00 00 00 00 00 00 00 00
       0.0 0.0 0.0 0.0
0002d0 00 00 00 00 00 00 00 00 00 00 00 00 00 00 00 00
       0.0 0.0 0.0 0.0
0002e0 00 00 00 00 00 00 00 00 00 00 00 00 00 00 00 00
       0.0 0.0 0.0 0.0
0002f0 00 00 00 00 00 00 00 00 00 00 00 00 00 00 00 00
       0.0 0.0 0.0 0.0
000300 00 00 00 00 00 00 00 00 00 00 80 3f 00 00 00 00
       0.0 0.0 1.0 0.0
000310 00 00 00 00 00 00 00 00 00 00 00 00 00 00 00 00
       0.0 0.0 0.0 0.0
000320 00 00 00 00 00 00 00 00 00 00 00 00 00 00 00 00
       0.0 0.0 0.0 0.0
000330 00 00 00 00 00 00 00 00 00 00 00 00 00 00 00 00
       0.0 0.0 0.0 0.0
000340 00 00 00 00 00 00 00 00 00 00 00 00 00 00 00 00
       0.0 0.0 0.0 0.0
000350 00 00 00 00 00 00 00 00 00 00 00 00 00 00 00 00
       0.0 0.0 0.0 0.0
000360 00 00 00 00 00 00 00 00 00 00 00 00 00 00 00 00
       0.0 0.0 0.0 0.0
000370 00 00 00 00 00 00 00 00 00 00 00 00 00 00 00 00
       0.0 0.0 0.0 0.0
000380 00 00 00 00 00 00 00 00 00 00 00 00 00 00 00 00
       0.0 0.0 0.0 0.0
000390 00 00 00 00 00 00 00 00 00 00 00 00 00 00 00 00
       0.0 0.0 0.0 0.0
0003a0 00 00 00 00 00 00 00 00 00 00 00 00 00 00 00 00
       0.0 0.0 0.0 0.0
0003b0 00 00 00 00 00 00 00 00 00 00 00 00 00 00 00 00
       0.0 0.0 0.0 0.0
0003c0 00 00 00 00 00 00 00 00 00 00 00 00 00 00 00 00
       0.0 0.0 0.0 0.0
0003d0 00 00 00 00 00 00 00 00 00 00 00 00 00 00 00 00
       0.0 0.0 0.0 0.0
0003e0 00 00 00 00 00 00 00 00 00 00 00 00 00 00 00 00
       0.0 0.0 0.0 0.0
0003f0 00 00 00 00 00 00 00 00 00 00 00 00 00 00 00 00
       0.0 0.0 0.0 0.0

encoder.align.pconv_mic.0.weight f4 [12, 1, 1, 1]
000000 f7 38 ca be f2 86 ac be 8d 12 e8 be 0d dc 84 3e
       -0.39496586 -0.33696705 -0.45326653 0.25949135
000010 92 38 a9 be ea ed 18 3f e1 0a 0f 3f c8 68 9d 3e
       -0.33050972 0.5973803 0.55875975 0.30744004
000020 a0 36 64 be d7 9c ff be 97 ce b0 3e a0 95 d4 be
       -0.22286463 -0.49924347 0.34532616 -0.41520405

encoder.align.pconv_mic.0.bias f4 [12]
000000 6d 1b 0e bf 44 53 d1 bd a2 4c e7 3d 8d 92 19 bd
       -0.555106 -0.1022096 0.112939134 -0.037493277
000010 d9 d3 08 3f be 06 72 3d 2a 05 16 3f 76 e8 20 3e
       0.53448254 0.05908846 0.5860163 0.15713677
000020 21 f6 85 3d 8d ca e1 3e f7 30 82 3d 3b 60 59 3d
       0.06541086 0.44099846 0.063569956 0.05307029

encoder.align.pconv_mic.1.weight f4 [12, 12, 1, 1]
000000 49 57 04 bf 81 8f 2e 3f 4f 0a 2b 3f 19 33 03 bf
       -0.51695687 0.6818772 0.66812605 -0.51249844
000010 2d d4 e7 3e b9 c2 c4 3e 55 7b 33 bf a0 3e 82 3f
       0.45279065 0.38429812 -0.70110065 1.0175362
000020 ef 4b 31 bf b8 ce dd be f5 7c 12 3e 4e 72 93 3e
       -0.6925649 -0.43321776 0.1430548 0.28798145
000030 92 27 11 bf 37 f3 a7 be 28 fb 3b be 48 e4 77 be
       -0.56701005 -0.32802746 -0.18357527 -0.24208176
000040 4f 08 19 3f bd 95 cb 3f fa 26 01 bf 5b 9d 34 3e
       0.597783 1.5905071 -0.504501 0.17638151
000050 43 f6 f8 be 1c f7 62 3f 0c 7a 68 bf 43 00 a8 bf
       -0.48625383 0.8865831 -0.9081123 -1.312508
000060 48 ab 5c 3f 42 25 41 3f 1d 7b f3 3e 1d 5f ab bf
       0.86198854 0.75447476 0.47554865 -1.3388401
000070 19 80 14 3f fe 5d 73 3c 78 03 8a be f1 c1 9d be
       0.5800796 0.014853952 -0.2695577 -0.30812028
000080 2e bb 1c 3f 0d 45 02 3f c8 e7 27 3f 5f d2 2f be
       0.61223114 0.50886613 0.65588045 -0.17170094
000090 8c be 95 be f8 6e 6d be ee 92 9c bd 02 88 d4 3e
       -0.29246938 -0.23186862 -0.07645212 0.41510016
0000a0 05 c2 c9 bf 56 98 10 bd b9 6f 27 bf dc db 5b 3f
       -1.5762335 -0.03530153 -0.6540485 0.85882354
0000b0 b9 ad 6b 3f a3 ae 31 bf 85 b2 98 be df 8e 84 3e
       0.92061955 -0.694071 -0.298237 0.25890252
0000c0 e4 21 48 bf a6 64 6d 3d ad 75 03 40 4e 1d 72 3f
       -0.78176713 0.057957314 2.0540574 0.94575965
0000d0 22 f2 49 3f 87 73 b7 3f 7f f2 88 bf d3 de 3c be
       0.7888509 1.4332131 -1.0699004 -0.18444376
0000e0 f0 59 0b be 6a d2 49 3e 5a 75 82 be 4c cb 02 bf
       -0.13608527 0.19709173 -0.25480157 -0.51091456
0000f0 46 fd 9e be 5e 0b dd 3c d5 33 29 3e 7e b9 07 bf
       -0.31052607 0.02698296 0.16523679 -0.53017414
000100 7a fb 32 3e 6d 72 6d 3e 80 9d 0b bf f0 c8 9e be
       0.17478743 0.23188181 -0.545372 -0.31012678
000110 61 58 a5 be ae 76 0e be b6 4d 23 bf d2 38 ea bc
       -0.3229399 -0.1391246 -0.6379045 -0.028591547
000120 20 87 c0 3e 8e b0 a3 bf e3 94 24 3f 1e 77 41 be
       0.37603092 -1.2788255 0.64289683 -0.18893096
000130 40 5b 46 3f 2d 67 13 bf bf 15 da be b8 3f 60 3f
       0.77482986 -0.5757931 -0.42594716 0.8759723
000140 4c a0 62 be 02 3b c8 be aa 21 02 3f 2a 22 12 3e
       -0.22131461 -0.3910752 0.5083262 0.14270845
000150 8b 6e 50 3e 2a ef e0 3f cb d0 01 bf 1d ae 22 be
       0.20354669 1.7572987 -0.5070922 -0.15886731
000160 10 f9 2c be 80 99 5a 3d 4f ce e2 3c 84 cf 99 3f
       -0.16891885 0.053369045 0.027686266 1.2016454
000170 80 24 a3 3f 60 01 9a bf b1 ef d8 3e b1 31 20 be
       1.2745514 -1.203167 0.4237037 -0.15643956
000180 d2 90 19 be de 8f d9 3e 5b df 91 3f 8b e2 5a 3e
       -0.14996651 0.42492574 1.1396288 0.21375482
000190 7d d5 75 3e b1 7f 96 3f ca a8 41 3e 1d 11 bf 3f
       0.2400722 1.1757718 0.18912044 1.4927098
0001a0 e1 de 91 bf 39 98 c2 3e 0b 0a f0 3f d2 24 88 3f
       -1.1396142 0.38006762 1.8753065 1.0636237
0001b0 12 39 96 3c 01 fa ab be f0 3f 0d be 55 f6 8f 3e
       0.01833776 -0.33589175 -0.13793921 0.28117624
0001c0 b1 7f dd be 3e 0b ca 3e c0 79 ae bf f5 38 29 bf
       -0.43261483 0.39461702 -1.3630905 -0.66102535
0001d0 4f 82 ba be 8b b4 97 3d 1d 31 4b 3d 9d 37 0b be
       -0.36427543 0.07407483 0.049607385 -0.13595434
0001e0 42 71 86 3f 42 8d 2b bf fa 9b 81 be 86 db 09 bf
       1.0503314 -0.6701242 -0.25314313 -0.5385059
0001f0 5f e0 96 3f 64 4e c2 be 30 1a 73 be 30 dd ae be
       1.1787223 -0.37950432 -0.23740458 -0.34153128
000200 c5 1f f0 be 2c bc 73 3f bf 3a a4 3d 86 68 b6 3e
       -0.46899238 0.95209 0.080190174 0.3562662
000210 e0 a9 6e be 0e 9c 8f 3f 91 ea 2e bf 1d 6e 0b 3f
       -0.2330699 1.1219499 -0.6832667 0.54464895
000220 87 5c 4b bd 96 d2 49 3e f3 07 16 bf ed f0 a4 3e
       -0.049648788 0.19709238 -0.5860588 0.32215062
000230 27 7e ec be 69 07 b4 bf 75 97 ac 3f 88 7a 99 bf
       -0.46189997 -1.4064761 1.3483721 -1.1990519

encoder.align.pconv_mic.1.bias f4 [12]
000000 f5 52 02 3f 23 44 c3 be c8 67 9b bf b8 0f 49 bd
       0.5090783 -0.38137922 -1.2141047 -0.049087256
000010 f8 16 90 bf b4 74 72 bd 01 ab 5c 3f 81 14 49 bf
       -1.125701 -0.059193328 0.8619843 -0.7854691
000020 5d 0d e1 3d 98 7f af 3f 94 62 b2 3b e2 f4 74 be
       0.10988877 1.3710814 0.0054438803 -0.2392154

encoder.align.pconv_mic2.0.weight f4 [12, 1, 1, 1]
000000 e9 b6 26 39 0e 31 72 3f f2 5a 28 bf 85 01 90 ba
       0.00015899133 0.946061 -0.6576377 -0.0010986781
000010 ef 82 04 3c cd fd 5e 3f 6a c4 b3 3f f0 d9 eb 3f
       0.008087858 0.8710602 1.4044316 1.8425884
000020 52 9d 52 3f 44 75 ff 3e 11 d6 35 bf fa 90 bc 3b
       0.822713 0.49894154 -0.71029764 0.0057545872

encoder.align.pconv_mic2.0.bias f4 [12]
000000 83 e6 f9 bd 0b e4 92 be 20 1a af 3b 5c f2 31 3b
       -0.1220217 -0.28689608 0.0053436905 0.0027152514
000010 35 ff 14 3f 3b 46 02 bf b3 cf 64 bf 8b cc 46 3f
       0.58201915 -0.50888413 -0.89379424 0.7765586
000020 96 bd ca be d7 e6 f9 3e 0f 55 59 3f f0 2a 82 bc
       -0.39597768 0.4880893 0.84895414 -0.015889615

encoder.align.pconv_mic2.1.weight f4 [12, 12, 1, 1]
000000 7a 41 e9 bc d4 55 0a 40 f9 57 03 3f d8 4a 6c 3e
       -0.028473604 2.1614885 0.5130611 0.23075426
000010 7d 4a 8c 3e 22 5b 40 40 2e 01 a5 3f c6 ca 4a c0
       0.2740058 3.0055623 1.2890985 -3.1686263
000020 d2 20 75 3f 74 46 c5 bf e9 cc e0 be b5 2e 3f 3e
       0.95753205 -1.5412126 -0.43906334 0.18670161
000030 a7 a7 97 bd e9 00 d9 bf 11 42 5a 3f 70 c9 47 bd
       -0.07405024 -1.6953403 0.8525706 -0.04877609
000040 34 a5 c4 3c a1 dc 19 3f e5 82 bd 3e 8d af fd 3e
       0.024004556 0.6010228 0.37013927 0.49547997
000050 67 a5 29 bf 37 98 44 be d9 2c 7b 3e aa 35 e2 bc
       -0.6626801 -0.1919869 0.24528827 -0.02761348
000060 5a ce 3d bd a8 1a 58 3f a2 c3 1e 3f 00 c0 2a bd
       -0.04633937 0.84415674 0.6201726 -0.04168701
000070 7b b6 a6 3d 3c 41 8b 3d 99 b6 72 3e e8 12 3d bc
       0.08140274 0.06799552 0.23702468 -0.011540152
000080 b3 54 36 3f da ea 8a bd c6 16 bb 3f 60 52 1f ba
       0.7122299 -0.06783076 1.4616325 -0.00060776435
000090 5a 3b 5d 3b 5e 02 94 be a0 8f 3b 3f da 2e e6 3c
       0.00337573 -0.28908056 0.7326603 0.028098512
0000a0 9a 2e b6 3d 7f d1 c0 bf bb bd 6c bf cd 7c 73 3f
       0.08895607 -1.5063933 -0.92477006 0.95112306
0000b0 59 0b 2c 40 ab 52 6b bf 9c 34 1a 3f 69 82 e3 3d
       2.6881926 -0.91923016 0.60236526 0.11108858
0000c0 96 bd 84 bd 18 3f a4 be d2 51 a8 be c1 c4 26 3d
       -0.06481473 -0.32079387 -0.32874924 0.040714983
0000d0 91 88 fd bc 05 33 81 3d b5 10 8f bf a1 70 77 be
       -0.030948909 0.06308559 -1.1176974 -0.24164058
0000e0 43 50 a1 be 9c 12 0e 3f e5 d2 e4 bd 75 d0 2d bd
       -0.31506547 0.55497146 -0.111730374 -0.04243513
0000f0 fa 1e 8f 3e 4f 03 bf 3e 00 56 ef 3e 2a 8a 8b be
       0.2795332 0.37307212 0.467453 -0.27253848
000100 23 33 14 be 73 ce 5c 3f 90 a2 c4 be 99 6d 19 bf
       -0.14472632 0.86252517 -0.38405275 -0.5993286
000110 64 38 d8 3e 79 88 2c 3c 54 3f 2f be 21 b5 74 bd
       0.42230523 0.0105305845 -0.17114002 -0.05974305
000120 d5 65 88 be 39 dc 95 3e 56 6f e9 3f 54 39 5c be
       -0.26640192 0.2926958 1.8237102 -0.21506244
000130 b5 27 b1 3c d3 8d 17 be ae 81 36 be a7 26 ac bf
       0.02162538 -0.14800195 -0.17822906 -1.3449296
000140 d1 c4 b1 bf 73 9c c1 3e 4d 31 36 bf 15 8b 71 be
       -1.3888189 0.37814674 -0.7116898 -0.23588212
000150 f8 e0 16 3d 4f 38 bf 3e 67 54 e5 bd c8 39 26 bd
       0.03683564 0.37347648 -0.11197739 -0.04058245
000160 ed 3c f2 be 9f 75 cb be 1d c1 27 40 b5 a5 15 bf
       -0.47312108 -0.39738175 2.6211617 -0.58455974
000170 09 2e aa 3f 10 81 d9 bd 5b 2d 36 3f 10 04 5b bd
       1.3295299 -0.1062032 0.71162957 -0.05347067
000180 13 ab e8 3d 5e 6a a5 bb 33 31 23 3f 30 f8 24 bc
       0.11360755 -0.0050480803 0.6374695 -0.010068938
000190 39 9a 34 bd 6f 01 b3 bf 0f 3a 11 3f c0 ef 1d 40
       -0.04409239 -1.3984812 0.56729215 2.4677582
0001a0 dd 02 02 3f 5c f4 52 bf 04 b0 83 bf e5 e5 3c 3d
       0.5078562 -0.8240411 -1.0288091 0.046117682
0001b0 ee 5a d9 bb 7d ba aa 3f de aa 64 3e 58 e6 39 bd
       -0.006633154 1.3338162 0.22330806 -0.04538569
0001c0 c3 ad 82 be 8c ea 05 be 75 fa c3 bf 65 2f 67 3f
       -0.25523195 -0.13077754 -1.5310808 0.90306693
0001d0 5b 63 b9 3f 4d fb 85 bf 37 94 15 3f 61 4b 3c bd
       1.4483446 -1.0467316 0.5842928 -0.045970324
0001e0 c4 f1 b1 3c ed d2 4b 3f 26 cc af bf 80 9f 0d 3e
       0.021721728 0.7961872 -1.3734176 0.13830376
0001f0 31 cf 39 3d 20 03 b1 3f 5e a3 21 bf 03 79 5a be
       0.04536361 1.3829079 -0.63139904 -0.21335225
000200 c3 08 90 3e 42 6a a1 3e 5e 8e d2 3f 43 85 5f 3e
       0.28131685 0.3152638 1.6449697 0.21828179
000210 46 8e 6d bd be e6 8e 3f 6a 4b f9 bf ec 7c 3d bd
       -0.05799701 1.1164167 -1.947614 -0.046261713
000220 ec 88 96 3e a5 6f 52 bf 1d 67 dc 3e d4 3b b3 be
       0.29401338 -0.82201606 0.4304742 -0.35006583
000230 63 17 14 bf 42 5b 8f bf 56 35 8c bf 89 3c 13 bd
       -0.57848185 -1.1199725 -1.0953777 -0.035946403

encoder.align.pconv_mic2.1.bias f4 [12]
000000 11 e5 56 3e 7c 26 34 3e 6a 59 14 bc 3b 3f fa 3c
       0.2098582 0.17592806 -0.009054521 0.030547729
000010 16 d9 f6 3d 98 67 66 be 8a f1 45 bd c4 c9 0f 3e
       0.120531246 -0.22500455 -0.048326053 0.14041811
000020 49 88 8f be a3 a1 fe 3c 1a 7c fa 3d e3 7a 4e 3e
       -0.28033665 0.031082934 0.12230702 0.20164065

encoder.align.pconv_ref.0.weight f4 [12, 1, 1, 1]
000000 6c c5 45 be 50 63 44 3d 5c ec 02 3f cf c9 10 be
       -0.19313592 0.047946274 0.51141906 -0.14139484
000010 f6 1f 53 be 90 ec ff 3b 13 05 9a 3d 79 81 ca 3d
       -0.20617661 0.007810183 0.07520499 0.09887976
000020 83 b1 b4 3d 85 79 d3 be cf 53 35 bc 52 de 56 3e
       0.0882292 -0.4130365 -0.011067345 0.20983246

encoder.align.pconv_ref.0.bias f4 [12]
000000 ba 45 88 bf 71 2e 1c bd e9 aa 7a bf f4 07 f1 3e
       -1.0646279 -0.038130227 -0.9791704 0.4707638
000010 8d c3 82 3d 9c 09 df 3b c2 1e fd 3c 1c 67 a4 bd
       0.063849546 0.0068065654 0.030898456 -0.08027479
000020 c2 94 f4 3d ea c0 e8 bf 5f 8c e6 3b 1c f3 16 3f
       0.11942436 -1.8183873 0.0070357765 0.58964705

encoder.align.pconv_ref.1.weight f4 [12, 12, 1, 1]
000000 e2 9a be 3b dd 1a 57 3e 7e 5c d1 3d e4 f2 83 3d
       0.0058168033 0.21006341 0.102227196 0.06442812
000010 99 14 b6 3e 26 b8 b5 3c 79 00 dc 3d e7 0b e7 bd
       0.3556259 0.022182535 0.10742278 -0.11281567
000020 77 3a f1 3a 7d 50 60 3e ee 27 84 bc d6 b3 7c 3d
       0.0018404265 0.21905704 -0.016132321 0.061694942
000030 8d 94 9d bd ed 8c b5 3e 90 15 94 bf e4 92 ba be
       -0.076943494 0.3545908 -1.156908 -0.36440194
000040 2e e9 64 3f 72 43 bf bc 5d 44 8e bd 68 39 a8 3e
       0.89418304 -0.02334759 -0.06946633 0.32856297
000050 1e 27 9e 3e df 13 2d bf d4 fb eb 3b 2c 72 85 bf
       0.3088922 -0.67608446 0.007201651 -1.0425467
000060 50 c4 14 3e 95 6e d9 3d b8 3e ac 3e 71 fb 35 bf
       0.14528012 0.10616795 0.336416 -0.71086794
000070 30 0c 04 3e aa 8c cc 3b f3 d6 5b 3e 4a 0b 8a 3c
       0.12895274 0.0062423544 0.21468715 0.016851086
000080 6f dd a7 3e e6 f6 84 bd 47 36 c0 3c e6 0f 39 3e
       0.32786128 -0.06492405 0.023463381 0.18072471
000090 65 0c 4a be 0f 9b c6 bc 64 cc a9 be bf 4d c9 be
       -0.1973129 -0.02424386 -0.3316375 -0.39317128
0000a0 09 98 de 3c a7 f2 6b bc 74 12 bc 3e 9e 22 c5 3e
       0.027172105 -0.014401115 0.3673283 0.38502973
0000b0 ec 04 66 bd 4d 16 20 be 7c cb 08 bd 53 9a 9c 3b
       -0.056157038 -0.15633507 -0.033397183 0.004779139
0000c0 db 31 23 3f 65 c8 39 3e a4 e4 33 c0 18 8e 05 3d
       0.6374795 0.1814285 -2.81083 0.032606214
0000d0 4e fb 9e 3e 10 9e 93 3b 66 84 f6 bd dc 63 72 3e
       0.31051105 0.0045049265 -0.12036972 0.23670906
0000e0 fd 65 a7 3e 97 5d bd 3f bf e8 89 3b 03 78 69 3f
       0.32694998 1.4794186 0.0042086537 0.9119875
0000f0 af 86 d0 3e cf d1 eb 3c 4d b3 03 bd 00 3e bd be
       0.40727755 0.028786568 -0.032153416 -0.36961365
000100 99 4e a7 be b8 6f 00 bd 5e 72 92 bd 0a 86 dd be
       -0.32677153 -0.031356543 -0.0715072 -0.43266326
000110 5c b9 11 be 48 b9 29 bf a3 32 37 3d f6 c4 80 3e
       -0.14230865 -0.6629834 0.044726025 0.2515027
000120 c3 81 8b bf 63 a5 b7 be d5 e4 ff 3e 0a 49 cc 3c
       -1.0898975 -0.35868368 0.49979272 0.024937171
000130 a6 27 88 3d e4 54 a7 bd 39 b8 5e 3d fb 4d db bd
       0.06648187 -0.081704885 0.054374907 -0.10708233
000140 59 69 b2 3d fc 75 94 be b7 28 12 3d 0e da 32 bf
       0.087115 -0.28996265 0.03568336 -0.69863975
000150 2c 24 27 3e 89 dd 32 3d 7a 76 d0 be a4 a2 5f bf
       0.16322392 0.043668304 -0.4071539 -0.87357545
000160 67 62 da 3e 2a ad 01 3c f9 8c 74 3f 3d 87 00 be
       0.426532 0.007914821 0.9552761 -0.1255159
000170 83 51 53 bf 1f 9b 86 bd 61 d7 18 bc b0 dd 7c 3f
       -0.8254625 -0.06572556 -0.009328694 0.9877577
000180 93 4d 97 be 53 d1 97 be 97 bf 8e bd 2d 0f 14 3f
       -0.29551372 -0.2965189 -0.069701366 0.57835656
000190 4b 06 60 bf 85 50 a2 3c b3 2d 12 bf f3 17 94 3f
       -0.875096 0.019813785 -0.5710098 1.1569809
0001a0 36 fa bb 3d 60 63 10 c0 97 3b f6 ba d2 ae 53 3f
       0.09178583 -2.2560654 -0.001878607 0.8268863
0001b0 fd ef 3d 3e f6 f3 ab 3d e9 91 5d 3d e9 96 2a 3e
       0.1854858 0.08396141 0.05409423 0.1665913
0001c0 64 4e 7e 3d 56 3b e9 b9 ea c6 c3 bc f2 d8 97 bd
       0.062086478 -0.00044485432 -0.02389856 -0.07414426
0001d0 2b eb ba bd d6 a7 49 be 31 d2 4b 3c 80 9b 93 3c
       -0.09126886 -0.1969293 0.01244025 0.018018484
0001e0 9d 38 dc be 70 aa 1b 3e 87 65 e4 3e db e1 2b be
       -0.43011943 0.15201735 0.4460871 -0.16785376
0001f0 3a b7 34 bf a2 59 82 bc 80 b5 58 3e 1c 2f 0a be
       -0.7059208 -0.01591188 0.21162987 -0.13494533
000200 b9 eb 05 be 36 b8 bf 3e 15 3b 44 3c 88 72 7d 3e
       -0.13078202 0.3744523 0.011976977 0.24750721
000210 27 cd 62 be 06 95 ac 3e 7b 3d dd 3d d1 9c 34 bf
       -0.22148572 0.33707446 0.10802742 -0.7055178
000220 6b c7 bf bd 5c c8 36 bc 0d 6c 70 3e b3 b1 54 3f
       -0.09364208 -0.011156168 0.23478718 0.8308365
000230 8a c2 89 3f c4 a9 0c bf 86 64 e4 bc 30 cc 29 be
       1.0762494 -0.5494654 -0.027879965 -0.16581798

encoder.align.pconv_ref.1.bias f4 [12]
000000 7b 27 34 3f dc 69 aa 3e 0c 55 aa 3f f3 0d 94 bf
       0.7037274 0.3328389 1.3307204 -1.1566757
000010 b1 e9 1e be a4 21 63 bc 8d 57 be bf e3 45 e8 be
       -0.15518834 -0.013863001 -1.4870468 -0.4536582
000020 d0 b7 1e 3e 73 8c 8e bf 30 19 0a c0 66 b5 bf bf
       0.15499806 -1.1136612 -2.1577873 -1.4977233

tfgru1.intra_gru.path1.weight_ih_l0 f4 [18, 12]
000000 fe a2 24 39 ef 16 25 b9 e3 e5 e5 b8 77 b5 24 b9
       0.00015700978 -0.0001574417 -0.00010962391 -0.0001570786
000010 69 42 e6 b8 5c 58 07 39 04 4b fd 38 84 19 33 39
       -0.000109796245 0.0001290752 0.00012077953 0.00017080276
000020 af 67 26 39 26 ca 23 39 dc bb fe b8 8e da 07 37
       0.00015869619 0.00015620198 -0.00012146655 8.097513e-06
000030 08 3e a5 b8 22 ae 17 b9 55 90 28 b9 31 3f 0d b9
       -7.879367e-05 -0.00014465352 -0.00016075496 -0.00013470348
000040 fc a2 fb b8 4a fe fa 38 22 e8 50 37 37 17 e9 b8
       -0.00011998971 0.00011968294 1.2451814e-05 -0.0001111463
000050 b2 c3 44 38 96 57 84 b7 f0 1c e6 b8 ef f9 70 38
       4.6912297e-05 -1.5776412e-05 -0.00010972645 5.7453228e-05
000060 f1 56 a1 38 8c c6 0e 39 76 f9 86 36 0a c0 41 39
       7.693272e-05 0.0001361614 4.0225523e-06 0.00018477454
000070 b3 0f 9d 38 16 53 34 b9 7c f3 0b 39 54 ae 89 38
       7.4892676e-05 -0.0001719709 0.00013346778 6.56514e-05
000080 d9 35 41 39 83 9a 24 b9 6d ec 13 39 6e 9b fc b8
       0.00018425974 -0.00015697819 0.00014107088 -0.000120452474
000090 0f 97 81 37 bd b2 44 b8 42 5b 43 38 7d b2 83 39
       1.544834e-05 -4.6896505e-05 4.6576613e-05 0.0002511925
0000a0 c3 2a 08 b9 77 b8 e5 38 d4 b3 9c b8 45 5e 33 b9
       -0.000129859 0.0001095393 -7.472155e-05 -0.00017105888
0000b0 d0 6d d3 b8 1b 0a a2 38 8c aa 05 39 ad d0 44 38
       -0.00010081718 7.726644e-05 0.00012747402 4.6924386e-05
0000c0 97 6d a3 38 52 99 05 b9 8e 81 47 38 d6 2d d0 37
       7.7928584e-05 -0.00012740985 4.7565954e-05 2.4816876e-05
0000d0 f1 f7 80 36 72 9d 24 b9 a4 34 88 b8 3a eb 0f b8
       3.8435614e-06 -0.00015698912 -6.4947904e-05 -3.431293e-05
0000e0 dc c0 43 39 59 bf f3 b9 34 19 2a 39 dc 8c 05 b9
       0.00018668495 -0.00046491137 0.00016221852 -0.00012736343
0000f0 7a f7 d8 b8 66 f3 93 b7 1a 40 a0 38 b8 5c 0b b9
       -0.00010345779 -1.7637107e-05 7.6413344e-05 -0.00013290613
000100 0b 5b fd 38 88 ad 18 b9 ca 9b 41 b9 db 3c e8 b8
       0.00012080938 -0.00014560495 -0.0001846395 -0.00011073957
000110 30 81 2b 39 11 16 ff 37 a8 85 17 39 0b 83 bc b7
       0.00016355957 3.0408644e-05 0.00014450273 -2.2472368e-05
000120 23 36 5a 3a 20 e2 0e bb 08 00 b0 ba 4a da 1c bc
       0.0008324107 -0.0021802261 -0.0013427744 -0.009573529
000130 e6 fe 8d 39 ac 0a 5e bc f9 79 7a 3e 37 a7 7d ba
       0.0002708353 -0.013552349 0.24460591 -0.0009676101
000140 48 96 7c 3c ca 88 93 bc 32 6a dc 3b 66 5f a7 bc
       0.015416689 -0.018009562 0.0067265267 -0.020431232
000150 59 ef c5 3a 2d 1f ed b9 8a d4 4a bb c3 02 cb bb
       0.0015101238 -0.0004522739 -0.0030949437 -0.0061953976
000160 0e 75 d6 b9 e4 ed 55 bd 3a 95 8d 3a 57 89 db 3c
       -0.00040904473 -0.052228823 0.0010801919 0.026798887
000170 10 85 ab 3b ec c7 8a be 1b 37 bb ba c0 92 81 ba
       0.005234368 -0.27105653 -0.001428339 -0.0009885654
000180 29 7b 46 38 a6 ca 0e b9 ee 3f 42 b9 16 89 e3 b7
       4.732158e-05 -0.00013617668 -0.00018525097 -2.7124344e-05
000190 e1 89 e3 b7 39 f1 21 38 76 0b 93 38 97 a7 3e 39
       -2.7124714e-05 3.8610047e-05 7.011641e-05 0.00018182244
0001a0 af 6e 13 b9 53 e1 97 37 7f 73 8b 38 33 28 22 39
       -0.00014060245 1.8105527e-05 6.649549e-05 0.000154645
0001b0 3e d3 91 38 64 44 45 b9 b1 57 5c b8 82 2c 7e 38
       6.953486e-05 -0.00018812862 -5.2533756e-05 6.059977e-05
0001c0 bb a3 de 38 9f e2 27 b8 0a 15 e4 37 e6 9a 77 37
       0.00010616282 -4.002696e-05 2.7189515e-05 1.4758412e-05
0001d0 84 de 33 39 00 ef 6f b8 92 e6 90 38 83 65 86 36
       0.00017153664 -5.7204627e-05 6.909402e-05 4.0053287e-06
0001e0 8c 43 ab b7 4b ff 2a b9 0c 94 45 38 0e dd 93 b8
       -2.0416242e-05 -0.00016307567 4.710634e-05 -7.050681e-05
0001f0 0d 66 07 b9 91 6c 43 b8 8e e1 1a 39 94 41 23 38
       -0.0001291262 -4.6592733e-05 0.0001477061 3.8923303e-05
000200 72 ac c4 b8 94 73 ab 38 95 98 73 39 8c 55 2c b9
       -9.378129e-05 8.1754435e-05 0.00023231127 -0.00016435067
000210 8b c2 a4 b8 82 10 a4 37 b2 be 45 b9 6b fc 3a 39
       -7.856366e-05 1.955801e-05 -0.00018858424 0.00017832375
000220 03 35 fd 37 5e 6e 73 b7 2b 2c 05 39 e3 e4 1a b9
       3.0184636e-05 -1.45096255e-05 0.00012700322 -0.00014771851
000230 38 a7 91 38 79 41 3e 39 97 b6 12 39 0a ba db 38
       6.945286e-05 0.00018144202 0.00013991665 0.00010477386
000240 50 cf f9 3a e8 ff df bd 46 f8 31 3b 5d 27 c9 bc
       0.0019058976 -0.10937482 0.002715604 -0.024554903
000250 10 71 d5 be 84 2e 70 bd 44 56 dc be bd 51 1a bf
       -0.41687822 -0.05863811 -0.43034565 -0.6028097
000260 f7 91 40 ba a7 61 91 be 0f 98 46 3e c4 23 fd 3d
       -0.0007345969 -0.28394815 0.19393943 0.123603374
000270 3f 40 1e 3f c9 3f fa bb 7b 33 50 3d 51 19 bf 3b
       0.6181678 -0.0076369983 0.050830346 0.0058318754
000280 1a b8 21 3c 16 a8 8a 3d 70 19 d9 be d4 46 b5 bc
       0.009870553 0.06770341 -0.4240222 -0.0221285
000290 92 9a 10 bb e5 e2 ae bd d3 6e 5f 3b af f0 a0 bd
       -0.0022064787 -0.085393704 0.0034093156 -0.07858407
0002a0 8d b2 12 b9 28 20 19 b9 21 44 36 39 ab 1e 36 39
       -0.0001399016 -0.00014603196 0.00017382253 0.00017368297
0002b0 6b 3f a6 b8 c7 05 cf b8 dd 51 23 b9 d6 a4 70 b8
       -7.927309e-05 -9.871605e-05 -0.00015575388 -5.7373974e-05
0002c0 10 54 37 b9 d3 32 3e b8 15 6a 80 b8 77 cc 28 b8
       -0.00017483556 -4.5346864e-05 -6.123275e-05 -4.0244744e-05
0002d0 0e 17 8a 3e 3f 39 8c bf 16 04 3d 3f 5b fe e9 3d
       0.26970714 -1.095497 0.7383436 0.114254676
0002e0 51 71 17 bd 37 e2 9e bc ae 84 7a 3a be a8 93 3e
       -0.0369733 -0.019394977 0.0009556514 0.28839678
0002f0 7d 49 de 3b e6 ab 46 bd c3 c5 b1 3e fc 77 06 3e
       0.006783663 -0.04850378 0.34721193 0.13131708
000300 19 c3 36 38 d2 e7 cd 38 9b 6b a3 b8 5e af 68 38
       4.357388e-05 9.818342e-05 -7.792489e-05 5.5476434e-05
000310 75 10 41 38 ad c8 1e b9 dd 3f 23 39 b4 2e 00 37
       4.6030113e-05 -0.00015142812 0.00015568682 7.640268e-06
000320 47 32 05 b9 44 b7 1c 39 88 cc 28 39 c3 6f 11 b8
       -0.00012702598 0.00014945591 0.00016097922 -3.467478e-05
000330 11 24 bc 3e 48 e0 b4 3a 18 d2 10 3e f8 74 16 3f
       0.36746266 0.0013799751 0.14142644 0.5877223
000340 ef 59 96 bc 9c d8 a9 39 aa 07 40 bd 25 e4 13 bd
       -0.01835343 0.00032395578 -0.04688231 -0.036106247
000350 ec d9 dc 3d 96 b0 c8 3d f1 ca 54 bc a5 b8 66 3e
       0.10783753 0.09799306 -0.012987838 0.22531374

tfgru1.intra_gru.path1.weight_hh_l0 f4 [18, 6]
000000 21 00 0e b9 b7 53 e1 b8 7a bd 0f 38 4b 96 38 b8
       -0.00013542223 -0.00010744429 3.427032e-05 -4.400899e-05
000010 76 0d d0 b7 89 01 11 39 d5 8a 32 39 1d c6 bb b8
       -2.48018e-05 0.0001382885 0.00017027122 -8.953756e-05
000020 ce f7 47 b8 f4 ec 33 b9 ca 5c 26 39 ea 16 3b 39
       -4.7676083e-05 -0.00017159042 0.0001586556 0.00017842246
000030 58 bf 0b 39 5e a5 45 39 67 d6 ae b8 96 52 43 39
       0.00013327354 0.00018848988 -8.336902e-05 0.00018627415
000040 b3 d5 eb b8 31 da 07 b9 1f 5b 42 b9 0f 61 44 b8
       -0.00011245478 -0.00012955886 -0.00018535227 -4.6820434e-05
000050 0e 7b 47 38 b6 90 47 b8 bd 4b 18 39 34 79 06 39
       4.75599e-05 -4.758007e-05 0.00014524064 0.00012824388
000060 1e 64 47 b8 f7 bd b7 38 9d 4f 18 39 6a ab 0f 38
       -4.753854e-05 8.761504e-05 0.00014525508 3.42535e-05
000070 fd cc 18 39 7e 25 47 b8 dc 8c 92 b8 ca f9 a1 b8
       0.00014572214 -4.7480215e-05 -6.9880596e-05 -7.723605e-05
000080 27 d3 b8 38 99 9a 07 39 90 34 d0 37 51 d4 15 b9
       8.813134e-05 0.00012932195 2.4820009e-05 -0.00014288841
000090 09 61 e2 b9 76 95 b2 3b 8e e5 dd 36 c3 0b f1 ba
       -0.00043178376 0.005449946 6.613037e-06 -0.0018390346
0000a0 b4 50 40 39 d9 37 da b9 58 99 c6 3a ad 58 fd 39
       0.00018340611 -0.0004162181 0.0015151901 0.0004832199
0000b0 c9 10 0d b8 8e f1 a5 ba ed dd 0b b9 ba 9a a7 bc
       -3.3632652e-05 -0.001266049 -0.00013338747 -0.020459522
0000c0 12 0f 2a 39 02 7c 0e b9 8e 96 47 38 bd 2d 89 38
       0.00016218078 -0.00013588372 4.7585512e-05 6.5411885e-05
0000d0 14 12 25 39 09 99 1a 39 c5 d6 c5 b7 b0 49 24 b8
       0.00015742361 0.00014743595 -2.358424e-05 -3.9169274e-05
0000e0 1b ca a0 37 01 bb 30 38 15 41 09 39 e9 80 8a 38
       1.9167599e-05 4.213583e-05 0.00013089583 6.604364e-05
0000f0 08 b5 42 b9 be 3a 1f 39 fd ca 18 39 92 19 41 39
       -0.00018568721 0.00015185305 0.00014571469 0.0001841544
000100 b1 50 18 39 9b fd ee 38 5f b9 cf 38 40 48 36 b9
       0.0001452591 0.00011395962 9.905057e-05 -0.00017383788
000110 20 f7 41 b9 48 c0 8c b8 ae ca ae 38 b5 e6 0a b9
       -0.00018497976 -6.7115354e-05 8.3347186e-05 -0.0001324665
000120 77 80 6e 38 72 79 64 39 f8 e2 cf b7 1d e7 d6 b8
       5.6863264e-05 0.00021789016 -2.4782013e-05 -0.000102473634
000130 91 f2 24 39 f4 48 83 38 d9 c9 a0 3f 27 eb 64 3e
       0.00015730622 6.260155e-05 1.2561599 0.22355329
000140 51 63 f0 38 39 f6 9e 3c 1b 28 0c 39 74 24 d6 3b
       0.00011462591 0.019404517 0.00013366381 0.0065351073
000150 f1 46 43 b8 fd 16 a4 38 66 f4 07 39 d2 c4 91 b8
       -4.6557692e-05 7.824411e-05 0.00012965649 -6.9507994e-05
000160 26 1e 48 b8 ed e5 7b b7 e9 dc 8c b8 ce 4f 39 39
       -4.7711794e-05 -1.50143e-05 -6.716868e-05 0.00017672704
000170 cf 8e 24 39 4e 8d 8c 38 02 07 15 38 24 45 2f b9
       0.00015693459 6.70204e-05 3.5530895e-05 -0.00016715057
000180 31 09 d0 37 6a 7c 0e b9 c6 57 d0 37 0f c4 a0 38
       2.4799812e-05 -0.00013588523 2.4836405e-05 7.665913e-05
000190 d7 ea b8 38 8f 5b e5 38 a5 bc f0 35 5a 38 fb b8
       8.817546e-05 0.00010936625 1.7936296e-06 -0.00011979109
0001a0 08 8a 15 b8 63 eb 35 b9 55 64 18 39 70 c9 0e 39
       -3.565292e-05 -0.00017349194 0.00014533226 0.00013617217

tfgru1.intra_gru.path1.bias_ih_l0 f4 [18]
000000 f0 a0 ba c0 f0 c4 d3 40 e3 22 36 bf 9c f8 c0 c0
       -5.8321457 6.61779 -0.7114698 -6.030348
000010 30 24 06 c0 db 95 ae c0 3a 72 83 3d 07 52 27 3f
       -2.0959587 -5.455793 0.06418271 0.6535954
000020 64 8d 9a 40 d8 46 15 c0 f6 a3 95 40 5c 31 d7 c0
       4.8297596 -2.332449 4.676265 -6.7247753
000030 c5 dd 49 3d c3 42 a4 3d 56 82 e0 3c 0d 98 0e 3d
       0.04928376 0.08020546 0.027405899 0.034812976
000040 50 45 43 be 72 94 e5 3c
       -0.1906941 0.028024886

tfgru1.intra_gru.path1.bias_hh_l0 f4 [18]
000000 c7 17 b9 c0 6e fe c1 40 69 0b 4b bf 46 23 b1 c0
       -5.7841525 6.0623083 -0.79314286 -5.535556
000010 de 76 1f c0 93 5c ba c0 e8 fc 45 3e 19 9b 6b 3f
       -2.49163 -5.8238006 0.19334757 0.92033535
000020 0a ed 99 40 1c 5a 31 c0 72 ec 95 40 3d 97 c8 c0
       4.8101854 -2.7711248 4.685113 -6.2684617
000030 93 22 0d 3d 0d d0 71 bd 17 37 c9 3d 53 1c 36 3c
       0.0344568 -0.059036303 0.09824961 0.011115151
000040 19 aa cb 3b b0 8c 14 3d
       0.0062153456 0.036266983

tfgru1.intra_gru.path1.weight_ih_l0_reverse f4 [18, 12]
000000 07 e2 b2 38 fb 9a 15 b9 14 1e 48 39 eb 50 f1 b8
       8.529802e-05 -0.00014267482 0.00019084691 -0.00011506848
000010 59 49 81 b9 a3 79 f2 38 fd 58 36 37 34 3e 11 39
       -0.00024659446 0.00011562116 1.0868765e-05 0.0001385145
000020 3e 28 a8 b7 0c f0 5b b9 6c b7 d0 38 c5 59 c1 37
       -2.00459e-05 -0.00020974892 9.952378e-05 2.3049195e-05
000030 30 2e 0b b8 10 c5 86 b7 54 21 12 b8 a3 73 43 b8
       -3.3183198e-05 -1.606581e-05 -3.484015e-05 -4.6599318e-05
000040 9d 40 15 38 83 c1 d2 b8 6a 81 1f b9 7d 56 82 39
       3.5584544e-05 -0.00010049625 -0.00015211632 0.0002485997
000050 3b a1 0c 39 11 f4 f5 38 dd 74 fd 38 c2 b6 60 b8
       0.00013411503 0.00011727971 0.000120857476 -5.357597e-05
000060 6e 77 27 b8 01 31 85 b9 e6 40 a1 38 a8 39 8e b7
       -3.992713e-05 -0.00025404248 7.6891665e-05 -1.6954567e-05
000070 fb 1c 98 b7 fc d6 5f 39 95 ce 05 b8 63 7e 1f 39
       -1.8133307e-05 0.00021347025 -3.1902066e-05 0.00015210504
000080 cc 3c 0e b9 32 54 2b 38 c0 c5 02 38 12 30 17 b9
       -0.00013564824 4.084799e-05 3.1178584e-05 -0.0001441839
000090 4e fe 97 bb 50 be ec b7 37 c3 19 3b a6 0b 48 3a
       -0.00463847 -2.8222013e-05 0.0023462304 0.000763113
0000a0 0c fa 3a 3c ea d3 44 bc 3d e2 0e bc 15 95 f9 bc
       0.011412155 -0.012013415 -0.008720932 -0.030466596
0000b0 3e 31 99 bc 82 5e af 3c 36 4e 3a 3c 78 12 73 3f
       -0.018700238 0.02140737 0.011371186 0.94950056
0000c0 fd 64 11 39 78 03 af b8 81 b6 9b b9 58 48 fe 37
       0.00013865899 -8.3452964e-05 -0.0002969988 3.0312847e-05
0000d0 06 17 95 b8 3d 7a 04 38 f1 6e 81 b7 88 02 c8 b8
       -7.109162e-05 3.1585096e-05 -1.542966e-05 -9.537215e-05
0000e0 70 13 1c 39 e4 92 68 b7 05 e0 27 38 fb 51 78 b9
       0.0001488456 -1.3862478e-05 4.0024537e-05 -0.00023681663
0000f0 fa 82 d0 b9 59 7b b3 bb b1 a5 a8 bf 5a d9 64 3a
       -0.00039770437 -0.0054773507 -1.3175565 0.00087298977
000100 4d 62 4d 3f 05 1a 9d bc 1f db 20 bc 05 9d 47 3b
       0.8022812 -0.019177446 -0.009817868 0.0030458581
000110 d1 38 71 bb 01 92 a5 bf 89 d2 e0 ba 32 62 00 3c
       -0.0036807547 -1.2935182 -0.0017152588 0.007835912
000120 c1 d9 d0 b8 a4 d9 14 3b ad f3 55 bc dd a8 31 3c
       -9.958773e-05 0.0022712732 -0.013058585 0.010843483
000130 26 e5 71 bb 32 bb 1c be 4b 08 79 bb 54 e2 c0 be
       -0.0036910265 -0.15305784 -0.0037999328 -0.37672675
000140 e9 7b ea 3e f3 a3 12 bf bd bf 30 bc 3e 1d b2 3e
       0.4579766 -0.57281417 -0.0107879015 0.34787935
000150 cc a2 bb bb 75 09 ed 3d 7a ec fe 3e 62 40 90 bb
       -0.005726194 0.115740694 0.49789792 -0.0044022063
000160 d1 38 8d bb 04 73 c2 3b 19 a5 0a 3e 5c 94 dc ba
       -0.0043097516 0.005934121 0.13539542 -0.0016828883
000170 d6 0f b9 bb 41 51 fc 3b b4 f7 f6 ba 90 b3 3d 3d
       -0.0056476397 0.007700116 -0.0018842132 0.046313822
000180 ce d4 16 b9 f1 4a d7 ba a4 23 54 3e 49 86 a9 3b
       -0.0001438439 -0.0016425533 0.20716721 0.0051734787
000190 21 cd c9 bd 51 1a 58 3d 15 56 02 3b 87 3d 29 3f
       -0.09853578 0.052759472 0.0019887735 0.6610951
0001a0 41 a2 f3 3f f3 e4 83 3e 49 14 f1 3d 03 e9 1c 3f
       1.9033891 0.25760612 0.11771447 0.6129305
0001b0 5d f1 ea 39 c7 60 3e bb d1 f4 8a 3c b1 e8 8d bc
       0.00044811788 -0.0029049383 0.01696244 -0.01732287
0001c0 0e 97 90 be 8e c6 07 3d a7 d8 23 3f f1 fc 68 3f
       -0.28240246 0.03314834 0.6400246 0.9101096
0001d0 1d c6 53 3f fa 2e d0 be c2 88 15 3b af 47 85 3e
       0.8272417 -0.4066084 0.002281711 0.26031253
0001e0 b8 a8 a5 b7 b7 e0 9f 3b 39 40 bb 3c 58 ea 0c bf
       -1.9748099e-05 0.004879083 0.022857772 -0.5504508
0001f0 02 fd 6c 3b eb c0 b5 bb d6 6f ea 3b 7f 87 e8 3b
       0.0036161547 -0.0055466793 0.007154445 0.0070962305
000200 1e 81 e4 bb ab 31 fa ba 5f 67 80 3c e1 24 00 bb
       -0.0069734 -0.0019088289 0.015674291 -0.0019553232
000210 62 29 c9 3b da 4d 61 bb 95 f4 30 3c f7 3d 5e b9
       0.0061389664 -0.0034378679 0.0108005 -0.00021194654
000220 42 18 e8 3a 5a 7f 00 3e fc 04 0f 3d b4 3e 8c ba
       0.0017707425 0.12548581 0.034916863 -0.0010699839
000230 a5 cd 05 bb c8 42 92 be 74 a6 5c 3b c8 09 af 3e
       -0.0020416763 -0.28566575 0.003366855 0.3418715
000240 9d 62 4a 3b 2d 40 12 bc ab 6a d2 bd 44 cd ab 3b
       0.0030881532 -0.0089264335 -0.102742516 0.0052429754
000250 3a 98 a1 3f b4 6b dc 3c 53 41 c1 be 93 b5 21 bf
       1.2624581 0.026906826 -0.3774515 -0.63167685
000260 6f c6 46 bc a6 99 1f bf 0e b5 63 be b2 68 d8 3d
       -0.012132271 -0.62343824 -0.22237036 0.10566844
000270 97 13 47 bd 40 e2 8a be ba 93 cf be 68 82 08 3c
       -0.048602667 -0.2712574 -0.40542394 0.0083318725
000280 86 cf 1f 3f 8b 19 36 3d 5e 35 43 3f 68 26 ab 3e
       0.6242603 0.044457953 0.76253307 0.3342774
000290 46 2a c4 3e 0e a2 04 bc df 41 ad bb f4 cb b9 3e
       0.38313502 -0.0080952775 -0.0052873935 0.36288416
0002a0 a7 52 ec 3e 7a 25 2d 3b 94 60 79 be 79 07 d6 3e
       0.4615681 0.0026420043 -0.24353248 0.41802576
0002b0 51 1f 5d 3f b8 f6 2e 3c e6 4d 67 bc ff dc b5 be
       0.8637591 0.0106789395 -0.0141176935 -0.3552017
0002c0 95 a9 3a bc c0 1e eb be b3 11 00 3c d8 36 54 3e
       -0.011392971 -0.45921898 0.00781672 0.20724046
0002d0 21 91 03 bc 02 e1 a7 3f 98 13 7f 3b 9f 74 cb 3e
       -0.008030207 1.3115542 0.003892159 0.39737412
0002e0 88 1e ef 3b d2 c9 06 bd 45 58 96 be 8a d7 a8 be
       0.007297341 -0.032907315 -0.2936422 -0.32976943
0002f0 60 c3 ea be f3 9b 6e 3d 57 98 05 3d 48 7f 9a be
       -0.45852184 0.058254194 0.032615986 -0.30175233
000300 38 7d 70 3a 9a bc 52 bc e8 25 12 bb 37 8a ff bd
       0.00091739325 -0.012862349 -0.0022300426 -0.12477534
000310 c0 f2 a2 ba a5 b1 02 bd a8 93 a1 bd c7 91 97 be
       -0.0012431964 -0.031907696 -0.07889491 -0.29603407
000320 ed 93 2c be a2 bb a5 3c 97 3a 1c 3c 59 e6 d9 3c
       -0.16853304 0.020231072 0.009535453 0.026599096
000330 15 ca 8f bd 45 db 72 be dc 1a c9 3c 9f d6 6a 3e
       -0.07020966 -0.23716457 0.02454894 0.22933434
000340 fe 1e 4c 3d 84 73 dd 3b b7 09 62 3e e6 12 ea bb
       0.049834244 0.0067581553 0.22074018 -0.007143366
000350 3c 6c 49 3c b7 13 19 be 7f 88 d8 be b8 2a 99 3d
       0.0122938715 -0.14948927 -0.42291638 0.07478851

tfgru1.intra_gru.path1.weight_hh_l0_reverse f4 [18, 6]
000000 84 32 df b8 2a 8f 7e b8 5d 4c 36 38 0a 4d ab b8
       -0.00010642878 -6.069165e-05 4.34633e-05 -8.168265e-05
000010 c1 2b 07 b9 22 58 58 b9 17 e6 69 b7 07 a5 14 39
       -0.00012890903 -0.00020632197 -1.3941454e-05 0.00014175857
000020 5a fb 9e b7 9f e9 c4 38 94 a8 66 39 05 cd ed b8
       -1.8952112e-05 9.3895236e-05 0.0002199731 -0.000113392285
000030 df 77 9d b8 5a c5 88 b9 ec ef 89 37 16 89 99 b8
       -7.508671e-05 -0.0002608698 1.6443395e-05 -7.321143e-05
000040 50 01 77 38 b6 91 5e b8 e3 d1 16 bc 8c 3e be bb
       5.889061e-05 -5.306463e-05 -0.009205314 -0.005805796
000050 4d ca fd bb bd 4e 12 3b 40 89 6f 3b da 3c 3d 3c
       -0.0077450634 0.0022324764 0.0036550313 0.011550153
000060 87 d1 bb b8 17 ea bf b8 42 ba 8c b8 43 77 ab b7
       -8.9558824e-05 -9.151192e-05 -6.7104134e-05 -2.0440324e-05
000070 dc 13 8b b9 0e 0f 40 39 0b 05 10 3b 1f 12 75 3e
       -0.00026526942 0.00018316155 0.0021975662 0.23932694
000080 f4 5d cd 3b 7b 39 1f 3e 5c d3 b8 3b cf d9 1a 3d
       0.0062673036 0.15549271 0.0056404304 0.037805375
000090 9b 68 82 bc 9a d6 97 ba 35 9b 00 3e 74 88 06 3b
       -0.01591902 -0.0011584342 0.12559207 0.002052811
0000a0 ab 6f af 3e 0c ab 01 bf dd 18 86 bc 06 39 78 ba
       0.34264883 -0.5065162 -0.016369278 -0.00094689464
0000b0 9f 46 4a bc b1 48 89 ba ee 7f 88 3b 9f c4 4c 3b
       -0.012345939 -0.0010473934 0.004165641 0.0031245125
0000c0 64 4e 20 3f 9d bc 78 bf e1 ab 35 3f 51 3c 01 bb
       0.62619615 -0.971628 0.7096539 -0.001971979
0000d0 bc 3c 08 3b 9d 25 36 3a f9 69 7b 3e fa 50 1e bd
       0.0020788154 0.0006948354 0.24552144 -0.038651444
0000e0 e3 64 27 bc 0f d2 f2 3f c3 d9 83 3f 46 5c f0 ba
       -0.010216924 1.8970355 1.0300831 -0.0018338047
0000f0 8f 4a fe bb 52 51 8b 3a 74 17 97 bc 7f 42 c2 b9
       -0.007760353 0.0010629094 -0.0184438 -0.00037052107
000100 af ba b7 bb b0 a7 8e bb b1 6a e5 3b 33 c1 1f bc
       -0.005606971 -0.004353486 0.007001244 -0.009750652
000110 5e 00 9d be 35 84 97 3c cc 9c 8e 3c f7 7d d6 3b
       -0.30664343 0.018495658 0.017408751 0.006545778
000120 e4 3f 09 3e a1 06 8e bc a8 cb f0 3e a7 bb 9c be
       0.13403279 -0.017337145 0.47030377 -0.30611917
000130 b5 bb d5 3b 0d 06 eb bb 28 23 e1 b8 08 9c a5 38
       0.0065226206 -0.007172352 -0.000107353844 7.896876e-05
000140 b8 06 54 b7 10 20 e8 37 3e 13 b3 b7 52 2c 02 b9
       -1.2637749e-05 2.7671485e-05 -2.1347423e-05 -0.00012414277
000150 50 8e b6 be a6 9f 68 be 0f 0c 4a 3f af b5 a8 be
       -0.3565545 -0.22717151 0.7892465 -0.32951114
000160 d7 54 97 be 1d e4 45 3d e5 fc a0 bb a1 9c 38 3e
       -0.29556915 0.04831325 -0.00491296 0.18028499
000170 74 47 43 3f 0a 05 8d 3f 6d a9 c4 be ff de be bd
       0.76280904 1.1017163 -0.38410512 -0.09319877
000180 0d 69 cf bb 91 b6 23 bf 3f 63 13 bc 48 01 3f 3f
       -0.0063296617 -0.6395045 -0.00899583 0.7461133
000190 f6 a9 1c 3f 80 4a 1a 3b cc 0f 13 bc 12 ce a3 be
       0.6119684 0.002354294 -0.008975934 -0.31993157
0001a0 ce f6 a8 bf 97 81 aa 3f ef 3c 0b 3e 69 91 99 bb
       -1.3200319 1.3320798 0.13597463 -0.0046865237

tfgru1.intra_gru.path1.bias_ih_l0_reverse f4 [18]
000000 49 14 18 40 a9 7a c2 c0 09 31 52 40 d3 21 13 3f
       2.376238 -6.077473 3.2842429 0.57473487
000010 e4 54 9d 40 2c 60 69 3d 5c 3c 3b 3f ef eb 3b 3f
       4.9166126 0.056976482 0.73138976 0.7340688
000020 e1 29 21 3f d8 81 82 3f 3f 7f 03 3f f0 77 e7 bb
       0.6295453 1.0195875 0.5136604 -0.007063858
000030 a9 f3 c7 3e 98 69 e5 bd 63 bd b3 be 15 91 a1 be
       0.39053085 -0.11201781 -0.35105428 -0.31556
000040 47 6f 2d 3e 38 78 99 3e
       0.1693698 0.29974532

tfgru1.intra_gru.path1.bias_hh_l0_reverse f4 [18]
000000 59 d0 30 40 29 97 b1 c0 cd 75 50 40 aa 06 c6 3e
       2.7627165 -5.549702 3.25719 0.3867696
000010 bb 57 ab 40 49 f5 90 be 5b 2d c3 3f 86 2e ab 3e
       5.3544593 -0.28312138 1.5248216 0.33433932
000020 a5 6a 58 3f 22 8e 9a 3f 91 ce f1 3e 1f c2 cf be
       0.84537727 1.2074625 0.4722791 -0.4057779
000030 8b a0 c5 3d 50 f8 a8 bd 34 ba 0b 3e 72 28 3a 3e
       0.09649762 -0.08250487 0.1364525 0.18179491
000040 e3 63 87 bd 92 15 bc be
       -0.06610849 -0.36735207
